model_cnn.pth (torch, 435171 bytes, 8 tensors)

conv1.weight f4 [6, 3, 5, 5]
0	0x3c41597b	0.011801119
1	0xbd6be70c	-0.05759339
2	0x3c36cde8	0.01115749
3	0x3d41b92d	0.047295738
4	0xbda9065b	-0.08253165
5	0x3d840ce6	0.06447773
6	0x3e7edec0	0.2488966
7	0x3da66cd4	0.08126226
8	0x3e09bb98	0.13450468
9	0x3de4389a	0.111436084
10	0xbe3d79b0	-0.18503451
11	0xbe747ce2	-0.23875764
12	0xbe947dd6	-0.29002255
13	0xbe1bbf8f	-0.15209793
14	0xbd63e9c8	-0.055642873
15	0xbd07e60f	-0.033178385
16	0xbcb9ffa0	-0.0227049
17	0xbe51103f	-0.20416354
18	0xbd88b131	-0.066744216
19	0xbd48c170	-0.0490126
20	0x3e2e7e81	0.17040445
21	0x3e4731b2	0.19452551
22	0x3d3d7c8d	0.04626136
23	0x3da0bc90	0.078484654
24	0x3cc3cea6	0.023902249
25	0x3df778c9	0.12083585
26	0x3a9eb584	0.0012108539
27	0x3d368bda	0.044566967
28	0x3dcf0df8	0.10110086
29	0x3cf8af98	0.030357167
30	0x3e272541	0.16322805
31	0x3e500ea1	0.2031808
32	0x3e5cd95e	0.21567294
33	0x3df7f03a	0.121063665
34	0x3d1ec7be	0.038764708
35	0xbdecf487	-0.115700774
36	0xbe29d7d9	-0.16586246
37	0xbe8d1cfc	-0.27561176
38	0xbc91e338	-0.017808542
39	0xbcd34a83	-0.025792366
40	0xbe30f31e	-0.17280242
41	0xbe5f1cfb	-0.21788399
42	0xbdec9ba1	-0.11553121
43	0xbce9316c	-0.028465949
44	0x3c863869	0.01638432
45	0x3d61f898	0.055168718
46	0x3d7be2c6	0.061495565
47	0x3e08f4ff	0.13374709
48	0x3cbcb418	0.023035094
49	0xbd42396f	-0.047418054
50	0xbcc1fe68	-0.02368088
51	0xbb6dc42a	-0.0036280253
52	0x3dfba8e2	0.12288071
53	0xbd2387f6	-0.039924584
54	0xbd1430c8	-0.036179334
55	0x3e18745f	0.14888142
56	0x3e7c0da3	0.24614577
57	0x3e5b9402	0.21443179
58	0xbb67942b	-0.0035336118
59	0x3d4e01e8	0.050294787
60	0xbdffce16	-0.1249048
61	0xbc5c0f80	-0.01343143
62	0xbe1793f5	-0.14802535
63	0xbde38b4c	-0.11110553
64	0xbcdc2eea	-0.02687784
65	0xbd984bcd	-0.07436333
66	0xbe5908d7	-0.21194778
67	0xbe569f85	-0.2095929
68	0xbd173730	-0.036917865
69	0xbd480ee9	-0.048842344
70	0xbb40a56a	-0.002939547
71	0x3db59add	0.088674285
72	0x3e16718b	0.1469175
73	0xbbccf559	-0.0062548337
74	0x3d39661b	0.04526339
75	0x3dae08c6	0.08497767
76	0xbdabe9d9	-0.08394212
77	0xbe441a3a	-0.1915063
78	0xbe059536	-0.130452
79	0xbd0c058e	-0.034184985
80	0x3bfb1adc	0.007663114
81	0xbdaa8628	-0.083263695
82	0xbd963847	-0.07334953
83	0xbe0c1116	-0.13678393
84	0xbca5dacb	-0.02024593
85	0x3d936c5b	0.071984015
86	0xbd04264e	-0.032263093
87	0x3e2d7422	0.16938832
88	0x3dd51f9d	0.104064204
89	0xbe34da97	-0.1766151
90	0xbd836325	-0.06415395
91	0x3e32eace	0.17472383
92	0x3e3a8e53	0.18218355
93	0x3dd1d1af	0.10245072
94	0x3d874eaf	0.066068046
95	0x3d9d3d1d	0.07677672
96	0x3d1ea082	0.03872729
97	0x3de026ce	0.109449014
98	0x3e14cef4	0.14532071
99	0x3cb735c4	0.022364505
100	0x3e821444	0.25406086
101	0xbda1a3b1	-0.0789255
102	0xbe0c879b	-0.13723604
103	0xbe63f2fb	-0.22260658
104	0x3e065348	0.13117707
105	0x3c0dc91a	0.008653903
106	0xbd4377cf	-0.04772168
107	0xbe2c22bf	-0.1681013
108	0xbdf675da	-0.12034197
109	0xbdb4e6fb	-0.088331185
110	0xbdfe6a8c	-0.12422666
111	0x3d960bc6	0.07326464
112	0x3d46941a	0.048481084
113	0x3dc47f9b	0.09594651
114	0xbe508c55	-0.20366032
115	0xbde7ce5b	-0.11318656
116	0xbd348646	-0.044073366
117	0x3df3b874	0.11900416
118	0x3e148cd8	0.14506853
119	0xbe03d889	-0.1287557
120	0x3d551816	0.052024923
121	0x3d9ac055	0.07556216
122	0x3ad666e0	0.0016357563
123	0x3d0f5344	0.034991518
124	0xbe108d1e	-0.14116332
125	0x3e4186fb	0.18899147
126	0x3df7ba93	0.12096133
127	0xbe06ac61	-0.13151695
128	0xbe4858eb	-0.1956517
129	0x3d8eea76	0.069783136
130	0x3e2554bf	0.1614561
131	0x3db6967e	0.08915423
132	0xbd591fe1	-0.053008918
133	0xbe5a16dc	-0.21297783
134	0xbdfb75fc	-0.12278363
135	0xbdd33db3	-0.103145026
136	0xbdf293e9	-0.11844618
137	0x3dc3aa79	0.095539995
138	0x3dbf700d	0.09347544
139	0xbe0c97a7	-0.13729726
140	0xbd6e399b	-0.058160406
141	0xba606dd9	-0.00085612905
142	0x3e5ccbc0	0.215621
143	0x3df1037f	0.11768245
144	0xbda7674b	-0.081739984
145	0x3db3f24a	0.08786447
146	0x3d10c311	0.03534228
147	0xbd26b274	-0.04069753
148	0xbd80906b	-0.062775455
149	0xbb559f73	-0.003259626
150	0xbde8632e	-0.11347042
151	0x3d628d9d	0.055310834
152	0x3d3033da	0.0430182
153	0x3d30ff96	0.043212496
154	0xbe32eda3	-0.17473464
155	0xbcafacc6	-0.02144469
156	0xbe2a362f	-0.16622232
157	0x3e15a833	0.14614944
158	0x3e024f7f	0.12725638
159	0x3db443a3	0.08801963
160	0x3d16fc18	0.03686151
161	0xbd01ae95	-0.031660635
162	0xbe2d53ad	-0.16926451
163	0x3c387fb7	0.011260918
164	0xbc980154	-0.01855532
165	0x3e42df95	0.19030602
166	0x3e24bdbd	0.16088004
167	0xbcc39e72	-0.023879264
168	0x3da8d294	0.082432896
169	0x3dd2c830	0.10292089
170	0x3d886262	0.0665939
171	0xbd4d0f1e	-0.050063245
172	0xbd64ed3b	-0.055890303
173	0x3d833a7c	0.064076394
174	0x3dc5a252	0.09650101
175	0xbd2855ca	-0.04109744
176	0x3d15ddec	0.036588594
177	0x3e63c619	0.22243537
178	0x3e3a8dfb	0.18218224
179	0x3e00c184	0.1257382
180	0x3da8e2f3	0.08246412
181	0x3d9cd10f	0.07657062
182	0x3e28ba65	0.16477354
183	0x3e090e85	0.13384445
184	0x3c1e5a15	0.009665032
185	0x3e4678b8	0.19381988
186	0xbd7773ba	-0.0604131
187	0xbda8eb17	-0.08247965
188	0x3b8be8d7	0.0042697
189	0x3dae9728	0.085249245
190	0x3e484226	0.19556484
191	0xbcd0135d	-0.025399858
192	0xbdf1eb53	-0.11812463
193	0x3e34f473	0.17671375
194	0x3dc4515a	0.09585829
195	0xbb483e6a	-0.003055478
196	0x3d0c90f6	0.034317933
197	0x3e04303d	0.12909026
198	0xbb9872d8	-0.0046523623
199	0xbda34990	-0.07973015
200	0xbdcff812	-0.101547375
201	0xbde6c818	-0.112686336
202	0xbe06c902	-0.13162616
203	0xbd1a561b	-0.037679773
204	0xbe2fed5e	-0.17180392
205	0xbdf078af	-0.117417686
206	0xbe49ee0a	-0.19719711
207	0xbcaad8c2	-0.020855311
208	0x3b3b0e95	0.0028542627
209	0xbdfba9c8	-0.122882426
210	0xbc34a893	-0.011026519
211	0xbcb2bd26	-0.021818709
212	0xbe30cb3f	-0.17265032
213	0xbe3441d4	-0.17603236
214	0x3d3cd59d	0.046102155
215	0xbd8ea133	-0.0696434
216	0xbd566b0f	-0.052348193
217	0xbe49b4b7	-0.19697843
218	0xbc973ecc	-0.018462561
219	0xbdb3d427	-0.08780699
220	0xbda518ef	-0.08061396
221	0x3cd9acda	0.02657168
222	0xbc576b7b	-0.013148184
223	0x3cb600e6	0.022217225
224	0xbdcdea9f	-0.10054516
225	0xbcbcb520	-0.023035586
226	0xbcfbdd51	-0.03074518
227	0xbd497fd3	-0.04919417
228	0x3da61c06	0.08110814
229	0xbc144dca	-0.0090517495
230	0x3da30ead	0.079617836
231	0xbd8d06c3	-0.06886055
232	0x3ceab825	0.02865226
233	0x3d7bbdeb	0.061460417
234	0x3e082e18	0.13298833
235	0x3de0f460	0.10984111
236	0xbc124d06	-0.008929497
237	0xbe54b3f3	-0.2077177
238	0x3dac6642	0.08417942
239	0x3d3e2338	0.046420306
240	0x3d205dc3	0.03915192
241	0xbda70ff2	-0.08157338
242	0xbe03cd66	-0.12871322
243	0x3e17841e	0.14796492
244	0x3c9af0e1	0.018913688
245	0x3dee1fa3	0.11627128
246	0xbe25d846	-0.16195783
247	0xbe10a8d8	-0.14126909
248	0x3dc544fa	0.09632297
249	0x3e5c7d49	0.21532167
250	0x3dabb933	0.08384933
251	0x3d2339a1	0.03984988
252	0xbdeb19b9	-0.114795156
253	0xbd66cc72	-0.056347318
254	0xbbeb8072	-0.0071869427
255	0x3df4f851	0.11961425

conv1.bias f4 [6]
0	0x3c8dd539	0.017313587
1	0x3e043b99	0.1291336
2	0xbc72c30b	-0.01481701
3	0xbc02b700	-0.007978201
4	0xbe0e3aab	-0.13889568
5	0x3ca728bb	0.020405164

conv2.weight f4 [16, 6, 5, 5]
0	0xbdd33894	-0.10313526
1	0x3db51469	0.088417836
2	0x3dd064c0	0.101754665
3	0x3c91b3e3	0.017785972
4	0x3d4b896e	0.04969161
5	0xbe43f570	-0.19136596
6	0xbd2b3dd6	-0.04180702
7	0x3e290816	0.16506991
8	0x3dd321ee	0.10309206
9	0xbe3042ae	-0.17212936
10	0xbd29299f	-0.04129946
11	0xbe0eb1d5	-0.13935025
12	0x3d53055f	0.051518794
13	0x3e115da5	0.14195879
14	0x3d33e9d4	0.043924168
15	0xbd6c9a3c	-0.057764277
16	0xbc8d6857	-0.017261667
17	0xbe0f28b2	-0.13980368
18	0xbd5cc6dd	-0.05390059
19	0x3e6f8dac	0.23393887
20	0x3d7b01d5	0.061281044
21	0xbbf18b49	-0.0073713404
22	0x3cb45522	0.02201325
23	0xbd184a72	-0.03718037
24	0x3e00d2c2	0.12580398
25	0xbd09ddbc	-0.033658728
26	0xbdb4c7e7	-0.08827191
27	0xbc25c8d6	-0.010118684
28	0x3d46897a	0.04847095
29	0x3c00cf7b	0.007861967
30	0x3df79582	0.12089063
31	0xbd1c5be3	-0.038173568
32	0xbdd108ab	-0.102067314
33	0x3c01524a	0.007893154
34	0xbc294734	-0.010331918
35	0x3cf1606d	0.029464925
36	0x3d4a7c52	0.049434967
37	0x3e0997bb	0.13436787
38	0xbd5155aa	-0.051107086
39	0xbcf32247	-0.02967943
40	0x3c2140f8	0.00984215
41	0x3d0507ce	0.032478146
42	0x3e0cbc1e	0.13743636
43	0x3dac7f2e	0.08422695
44	0xbe3b7c46	-0.18309125
45	0x3e691e73	0.22765522
46	0x3d3bcdb9	0.04585049
47	0xbc01b957	-0.007917724
48	0x3ddf3638	0.10899013
49	0x3d4c743a	0.04991553
50	0xbe2914ba	-0.16511813
51	0xbd4742e1	-0.048647765
52	0xbdc51d18	-0.0962469
53	0xbba1812d	-0.004928729
54	0x3d8a9a54	0.06767717
55	0xbe902cfe	-0.28159326
56	0xbde2cce1	-0.11074234
57	0x3db67000	0.08908081
58	0x3def4644	0.11683324
59	0x3e65e22e	0.22449562
60	0xbe7a5e78	-0.244501
61	0xbe8ecbcf	-0.2788987
62	0xbc01696c	-0.00789867
63	0x3e7ac06e	0.24487469
64	0x3e88e6dc	0.26738632
65	0xbe6786b8	-0.22609985
66	0xbe16ee0b	-0.14739244
67	0xbe35dff4	-0.17761213
68	0x3e4848e5	0.19559057
69	0x3ed35644	0.41276753
70	0xbe8111b9	-0.25208834
71	0xbe719777	-0.23592936
72	0xbcfb098e	-0.030644204
73	0x3ce4d731	0.027934643
74	0x3e856996	0.26057118
75	0xbd2d3d2c	-0.042294666
76	0x3d92040f	0.0712968
77	0xbda15f51	-0.07879508
78	0xbebccc37	-0.36874554
79	0xbe9d0871	-0.30670503
80	0x3d1cd156	0.038285576
81	0xbe3367f2	-0.1752012
82	0x3cc1ff8b	0.023681423
83	0x3e2778f7	0.16354738
84	0xbda0778a	-0.078353
85	0x3c885ece	0.016646769
86	0xbdb2cb02	-0.08730127
87	0xbd5c70bf	-0.05381846
88	0xbcd543c2	-0.026033286
89	0x3da690ec	0.081331104
90	0xbd861542	-0.06547023
91	0x3d814be0	0.063133
92	0x3cbae034	0.022811987
93	0x3ba1b661	0.0049350713
94	0x3d92144d	0.07132778
95	0x3e3dfb28	0.1855284
96	0x3df78064	0.120850354
97	0x3da06670	0.078320384
98	0x3cfe1928	0.031017855
99	0xbd214626	-0.03937354
100	0x3ea58eba	0.32335454
101	0x3e424450	0.18971372
102	0x3df995ae	0.12186752
103	0xbc84ca5b	-0.016209772
104	0xbdbcc17c	-0.09216592
105	0x3e9f65f0	0.3113246
106	0x3dbb0054	0.09130922
107	0xbe30e5d9	-0.1727518
108	0xbe6cb3f1	-0.23115517
109	0xbe5b69c7	-0.2142707
110	0x3e3ff7eb	0.18746917
111	0xbca50735	-0.020145038
112	0xbe130908	-0.14358914
113	0xbe7ccc55	-0.24687321
114	0xbdc251ba	-0.09488244
115	0x3d07e935	0.033181388
116	0xbe385690	-0.18001771
117	0xbdb0265b	-0.08601066
118	0x3b11da59	0.002225539
119	0xbcad646e	-0.021166053
120	0xbd2633c7	-0.040576722
121	0xbd378b74	-0.044810727
122	0xbda59cc6	-0.08086543
123	0x3c8990e1	0.016792716
124	0x3dbc8a2e	0.09206043
125	0xbdcf1cd1	-0.10112918
126	0xbce2a8e0	-0.027668417
127	0x3e05e227	0.13074552
128	0x3e2774f8	0.16353214
129	0x3daf88c3	0.08571007
130	0x3b36922d	0.0027858124
131	0x3d330955	0.04371007
132	0x3ddf4038	0.10900921
133	0xbd0e9273	-0.034807634
134	0xbe3f9847	-0.18710433
135	0x3e037924	0.1283918
136	0xbd81d8e5	-0.063401975
137	0xbe23364a	-0.15938678
138	0xbe8a7095	-0.27039018
139	0xbdc0b77a	-0.094099954
140	0x3e33e8b4	0.17569238
141	0x3c82d338	0.015969858
142	0xbe8bfb53	-0.27340183
143	0xbe82bfd7	-0.25536987
144	0x3dc658dc	0.09684917
145	0x3db9a92e	0.090654716
146	0x3cda8da7	0.026678873
147	0xbd2d4dae	-0.04231041
148	0xbe27236e	-0.16322109
149	0xbd4bbeac	-0.049742386
150	0x3e126b48	0.14298737
151	0x3dbac2bf	0.09119176
152	0xbd54296f	-0.051797327
153	0x3cd7a0c2	0.026321772
154	0xbd2eb7e9	-0.04265586
155	0x3d74c607	0.059759166
156	0x3da4f3d7	0.08054321
157	0xbdba9d98	-0.0911209
158	0xbe72c0cc	-0.23706359
159	0xbd4e2c41	-0.050335173
160	0xbd464f8c	-0.048415706
161	0x3d2f3460	0.042774558
162	0xbd2f0736	-0.042731486
163	0xbeaee06e	-0.341556
164	0xbe6087c1	-0.21926786
165	0xbcc250d3	-0.02372018
166	0xbcd8479f	-0.02640134
167	0xbd1d81fa	-0.038454033
168	0xbe86513a	-0.26233846
169	0xbe2d64c5	-0.16932972
170	0x3cc8fa41	0.024533393
171	0x3cf9537d	0.030435318
172	0xbc429156	-0.011875471
173	0xbda84fc4	-0.08218339
174	0xbddcaed2	-0.10775532
175	0x3d8cd525	0.068765916
176	0x3e1ced30	0.15324855
177	0x3e823010	0.25427294
178	0xbe2e9133	-0.17047577
179	0xbe26f8b8	-0.16305816
180	0xbda6fd03	-0.08153727
181	0x3e13ac7f	0.14421271
182	0x3eb73cae	0.35788482
183	0x3b379ffb	0.002801894
184	0xbe81ed82	-0.25376517
185	0xbe8ce16d	-0.27515736
186	0xbd6b5dbb	-0.057462435
187	0x3e8d1baa	0.27560169
188	0x3e306e03	0.17229466
189	0xbdb05eb8	-0.08611816
190	0xbe95960a	-0.29216033
191	0xbe28d108	-0.16485989
192	0x3cc2b553	0.023768103
193	0x3e15bd03	0.14622883
194	0xbdf47396	-0.11936109
195	0xbe326893	-0.17422704
196	0x3d7331da	0.059373714
197	0x3dfe0004	0.12402347
198	0x3df8dad2	0.12151112
199	0x3d921ac5	0.07134012
200	0xbc863b49	-0.016385691
201	0xbd265671	-0.04060978
202	0x3c989fb2	0.018630836
203	0xbd180f60	-0.037124038
204	0xbc9c635c	-0.019090347
205	0x3c82ac55	0.015951315
206	0xbb210b96	-0.0024573556
207	0xbbfc337f	-0.0076965685
208	0x3c4fbbf7	0.012679092
209	0xbd561894	-0.052269533
210	0x3d03f63c	0.03221725
211	0x3d660f1e	0.05616676
212	0xbe053a07	-0.13010417
213	0xbd1dbd1a	-0.03851042
214	0x3d1b710f	0.037949618
215	0x3d99961d	0.07499335
216	0x3bdc1be9	0.0067171943
217	0xbdf2cdd2	-0.11855663
218	0xbe3d7a0e	-0.18503591
219	0xbd1c8064	-0.03820838
220	0x3de799b6	0.11308615
221	0x3c3bf8cc	0.011472892
222	0xbac7af64	-0.0015234766
223	0xbde7724f	-0.113010995
224	0xbd09d1f2	-0.033647485
225	0xbe0b1079	-0.13580503
226	0xbdb07e90	-0.0861789
227	0xbe16236e	-0.14661953
228	0x3e1fc30a	0.15601745
229	0x3e149b5a	0.14512387
230	0x3cc30969	0.023808198
231	0x3be53d98	0.006995868
232	0xbe014de8	-0.12627375
233	0x3d06e502	0.032933243
234	0x3d9b6038	0.07586712
235	0xbc918815	-0.017765084
236	0xbd3a9cff	-0.04555988
237	0xbd005341	-0.031329397
238	0x3deb5589	0.11490924
239	0x3e17cc17	0.14823948
240	0xbd3caf4b	-0.04606561
241	0xbe06f614	-0.13179809
242	0x3ce92a2f	0.028462498
243	0x3d3b3d98	0.045713037
244	0x3d6ae082	0.057343014
245	0xbe2252f5	-0.15851958
246	0xbe1ea8b9	-0.1549405
247	0xbc84563d	-0.016154403
248	0x3e2ed491	0.17073275
249	0x3de26bb5	0.110557
250	0x3d69ffce	0.05712872
251	0x3d0500f3	0.03247161
252	0xbe25c4a8	-0.161883
253	0xbe8cd16e	-0.27503532
254	0x3d1036f7	0.03520867
255	0x3e0aaf1f	0.13543366

conv2.bias f4 [16]
0	0xbdc64890	-0.09681809
1	0x3e2a448b	0.1662771
2	0xbd9ebae8	-0.07750493
3	0xbe34ae16	-0.17644534
4	0xbdc5266c	-0.09626469
5	0x3ed72b71	0.4202533
6	0xbde53d58	-0.11193341
7	0x3e607ec8	0.21923363
8	0x3dcdb858	0.100449264
9	0xbe68d543	-0.22737603
10	0xbd923db5	-0.07140676
11	0xbdb7f58c	-0.08982381
12	0x3ea734e5	0.32657543
13	0x3e8356f6	0.25652283
14	0xbcb18ada	-0.021672655
15	0x3cc31378	0.023812994

fc1.weight f4 [256, 400]
0	0xbe75a16b	-0.23987357
1	0xbe844ef5	-0.2584149
2	0x3d517a9f	0.05114233
3	0x3e35458f	0.17702316
4	0x3e412e5b	0.1886534
5	0xbe2d3a36	-0.16916737
6	0x3d7b4f13	0.061354708
7	0x3d8cf813	0.06883254
8	0x3d75df39	0.060027335
9	0x3cdfa68b	0.027301094
10	0xbd5f38b3	-0.054497432
11	0x3da6a68b	0.08137234
12	0x3d4c01ee	0.049806528
13	0x3dcc2c05	0.099693336
14	0x3da13213	0.07870879
15	0xbd5def3a	-0.054183222
16	0x3dcedd0e	0.101007566
17	0xbcded9e2	-0.027203504
18	0xbadaaa32	-0.0016682802
19	0xbd8625f3	-0.06550207
20	0x3d8467c4	0.06465104
21	0x3d7e7e77	0.062132325
22	0xbdd1da81	-0.102467544
23	0xbe646cae	-0.22307083
24	0xbe83a6e3	-0.25713262
25	0x3d478b0b	0.048716586
26	0x3bd2f98c	0.0064384397
27	0xbdbeb3ab	-0.09311613
28	0xbe133ea0	-0.14379358
29	0xbe52ac44	-0.20573527
30	0x3e0af321	0.13569309
31	0xbd752f37	-0.05985948
32	0x3da00423	0.07813289
33	0xbd9d22b1	-0.076726325
34	0xbe6db1c3	-0.23212342
35	0x3d45e408	0.04831317
36	0xbdbec1ff	-0.093143456
37	0xbde28ae6	-0.11061649
38	0xbe44a966	-0.19205245
39	0xbe633849	-0.2218944
40	0xbdcd6ac3	-0.10030129
41	0xbdf708a1	-0.12062193
42	0xbe40d5c7	-0.1883155
43	0xbe95aacb	-0.29231867
44	0xbeb3a5f8	-0.35087562
45	0xbe5fec8b	-0.21867578
46	0xbe146118	-0.14490163
47	0xbe515f90	-0.2044661
48	0xbe50cf60	-0.20391607
49	0xbe48b429	-0.19599976
50	0x3e02c255	0.12769444
51	0xbc1a39fe	-0.0094132405
52	0xbd950c89	-0.072777815
53	0xbde1dc62	-0.11028363
54	0xbe1291a4	-0.1431337
55	0x3c7cf5b2	0.015439438
56	0xbe46652f	-0.19374536
57	0xbe110fa0	-0.14166117
58	0xbe016200	-0.1263504
59	0xbd4e3b61	-0.050349597
60	0xbd7ccfa2	-0.06172145
61	0xbe14d821	-0.14535572
62	0xbd75c980	-0.06000662
63	0xbe6ea3e8	-0.23304713
64	0xbdb44277	-0.0880174
65	0xbe8dfa62	-0.2773009
66	0xbe987f10	-0.2978444
67	0xbeb825aa	-0.35966235
68	0xbee3e1e7	-0.44508287
69	0xbe9043cd	-0.28176728
70	0xbe2fc295	-0.17164071
71	0xbe6f4595	-0.23366387
72	0xbe737d7d	-0.23778339
73	0xbe6fe907	-0.23428737
74	0xbdcf12ed	-0.10111032
75	0x3d7cf1e0	0.061754107
76	0xbce91ce6	-0.028456163
77	0xbd86caab	-0.065816246
78	0xbda87bf1	-0.08226765
79	0x3e5343ee	0.20631382
80	0x3d19c80f	0.037544306
81	0xbdc4ee87	-0.09615808
82	0xbe0b3a81	-0.13596536
83	0xbd668c88	-0.056286365
84	0x3dca52f2	0.09879102
85	0x3e1a3b64	0.15061718
86	0x3d754da0	0.059888482
87	0xbc01987e	-0.007909892
88	0x3d5aee7f	0.053450104
89	0x3e2f0b27	0.17094098
90	0x3e8cda1a	0.27510148
91	0x3dd530af	0.10409676
92	0xbdd4ebf2	-0.103965655
93	0xbdbfcfc4	-0.093658
94	0x3d83e70a	0.064405516
95	0x3e8064ba	0.25076848
96	0x3e194e5b	0.14971296
97	0x3dbcf00a	0.09225471
98	0x3cc5f712	0.024165664
99	0x3d15a881	0.03653765
100	0xbebc2a07	-0.36750814
101	0xbe409513	-0.18806867
102	0x3ca7441e	0.020418223
103	0x3e33db4a	0.17564121
104	0x3df7c104	0.12097362
105	0xbdccac63	-0.09993818
106	0x3e300b75	0.1719187
107	0x3d15f407	0.036609676
108	0x3bde06bc	0.006775705
109	0x3d4e77e2	0.050407298
110	0x3e07bba1	0.13255168
111	0x3dd847e8	0.1056059
112	0xbc55e6ef	-0.013055547
113	0xbd5e42b7	-0.054262843
114	0x3bd2c4d0	0.0064321533
115	0x3e7f1258	0.24909341
116	0x3d7cc4c0	0.061711073
117	0x3d04bd2b	0.032406967
118	0xbc928b1f	-0.017888604
119	0x3d87060e	0.06592952
120	0x3d9d9645	0.07694677
121	0x3e221246	0.15827283
122	0x3e1c99cf	0.15293048
123	0x3d3bc77a	0.045844533
124	0xbba10f67	-0.004915166
125	0x3d8c6034	0.06854287
126	0x3ea1b3ef	0.3158259
127	0x3ebcfff7	0.36914036
128	0x3e682e67	0.22673951
129	0x3c98c1b7	0.018647058
130	0x3e5c9623	0.21541648
131	0x3df28899	0.1184246
132	0xbdbf957b	-0.09354683
133	0x3d217590	0.039418757
134	0x3d80529b	0.06265756
135	0x3dd00a55	0.10158221
136	0xbd31656f	-0.043309625
137	0xbedf0aa0	-0.43562794
138	0xbe2f7022	-0.17132619
139	0xbdd5ee19	-0.10445804
140	0xbdd03904	-0.10167125
141	0xbe677b47	-0.2260562
142	0xbef32a09	-0.47493008
143	0xbe9b4c33	-0.30331573
144	0xbe1df7fa	-0.15426627
145	0xbdfeb70e	-0.12437259
146	0xbe0c8dfc	-0.13726038
147	0xbe239f7d	-0.15978809
148	0xbd846915	-0.06465355
149	0xbbec4042	-0.0072098086
150	0x3da894ba	0.08231492
151	0x3d5a1b1e	0.053248517
152	0x3e0b0383	0.13575558
153	0x3e8e05cb	0.27738795
154	0x3e0016dc	0.1250872
155	0xbcab995f	-0.020947156
156	0xbd3fcb53	-0.046824764
157	0xbd0ec0d7	-0.034851875
158	0x3e2bc4fa	0.1677436
159	0x3c676979	0.014124268
160	0x3d84ad35	0.06478349
161	0x3d04c84c	0.03241758
162	0x3d92141b	0.07132741
163	0x3dd07447	0.10178428
164	0xbcfdec61	-0.030996503
165	0x3cca2f57	0.024680777
166	0xbe1f96da	-0.15584889
167	0x3d1defef	0.038558897
168	0x3d849850	0.06474364
169	0xbd646c7b	-0.055767518
170	0x3dd4baf5	0.10387222
171	0xbd9a93da	-0.07547732
172	0xbb0f8884	-0.0021901438
173	0x3d8f38fd	0.069932915
174	0xbe929b89	-0.2863429
175	0xbd6c5447	-0.05769756
176	0xbd478c96	-0.048718058
177	0xbc0a09d8	-0.0084251985
178	0xbcdc0f88	-0.026862875
179	0x3d814cd5	0.06313483
180	0xbdcaa2a5	-0.09894303
181	0x3d87b819	0.06626911
182	0x3e15c010	0.14624047
183	0x3e66f9df	0.22556256
184	0x3d3d6106	0.046235107
185	0xbdb1654f	-0.08661901
186	0xbd3711da	-0.04469476
187	0x3e084db6	0.13310894
188	0x3dfadf2d	0.12249599
189	0x3c951b7f	0.018201588
190	0x3cf90854	0.030399479
191	0x3cd5b527	0.026087357
192	0x3cc61090	0.02417782
193	0x3dbff521	0.093729265
194	0x3d8a71e1	0.06760002
195	0x3da5cade	0.080953345
196	0x3dcac9cb	0.0990177
197	0x3dc308de	0.09523176
198	0x3cdfa359	0.02729957
199	0x3dd14073	0.10217371
200	0x3dea3736	0.11436312
201	0xbd240966	-0.040048026
202	0xbd8b86fb	-0.06812855
203	0xbd8bda3f	-0.068287365
204	0x3e25893f	0.16165636
205	0xbcddcd4e	-0.027075436
206	0xbe467f1e	-0.19384429
207	0xbd92c2e1	-0.071660765
208	0xbc72d0c2	-0.01482028
209	0x3d6b2bd1	0.057414833
210	0x3940b392	0.00018377442
211	0xbe167cd5	-0.14696057
212	0xbc87fbcc	-0.016599558
213	0xbb65d44b	-0.0035069163
214	0xbd816599	-0.06318206
215	0x3dd210e6	0.10257129
216	0x3d933733	0.07188263
217	0x3da336a2	0.07969405
218	0x3e184913	0.14871626
219	0x3db6301c	0.08895895
220	0x3cfdbe5c	0.03097456
221	0x3bfea9fd	0.007771729
222	0x3c675aab	0.014120738
223	0xbb429a52	-0.0029694033
224	0x3d5bb4bb	0.053639155
225	0x3cb3df82	0.021957163
226	0xbc526596	-0.012841603
227	0xbd665a76	-0.056238614
228	0x3d5566a2	0.05209983
229	0x3e241a20	0.16025591
230	0xbe567764	-0.20943981
231	0xbe2e7cfb	-0.17039864
232	0xbdeec4fb	-0.11658665
233	0x3cb1e733	0.02171669
234	0xbc2c0cc5	-0.010501091
235	0xbe5e4e1e	-0.21709487
236	0xbe42b424	-0.1901403
237	0xbe59c457	-0.21266304
238	0xbe575608	-0.21028912
239	0xbe26ace2	-0.16276887
240	0xbe66a7e5	-0.22524984
241	0xbd893de4	-0.06701258
242	0x3d0644f6	0.03278061
243	0xbe0c6ff2	-0.13714579
244	0xbdb30076	-0.08740322
245	0xbc03d094	-0.008045334
246	0xbd85665e	-0.065136656
247	0xbdb7d491	-0.08976091
248	0xbe8253ea	-0.25454646
249	0xbc7c4bed	-0.0153989615
250	0x3dad4184	0.08459762
251	0xbb325f8a	-0.002721759
252	0xbd19f0a1	-0.037582997
253	0x3cd11dc6	0.025526892
254	0xbe78366d	-0.24239512
255	0x3d9d657b	0.076853715

fc1.bias f4 [256]
0	0xbdf9a4ba	-0.12189622
1	0x3f06e7da	0.5269753
2	0xbe01c6b8	-0.12673461
3	0x3ee26f9a	0.4422577
4	0xbcfde51f	-0.030993043
5	0x3e5e1f9a	0.21691743
6	0x3de1fd0d	0.11034594
7	0xbd25410b	-0.040345233
8	0x3deced4a	0.11568697
9	0xbd9e5a00	-0.0773201
10	0x3ebbdda1	0.36692527
11	0xbc771c7c	-0.015082475
12	0x3e39c2eb	0.18140762
13	0xbe3e5980	-0.18588829
14	0x3d156bc2	0.03647972
15	0xbcc7f47b	-0.02440857
16	0x3e9e5dd2	0.30930954
17	0xbd8468eb	-0.06465324
18	0xbca6c886	-0.020359289
19	0xbc16391b	-0.009168888
20	0x3d6de774	0.05808206
21	0xbd7dca52	-0.061960526
22	0x3e9e1384	0.30874264
23	0xbc8e871a	-0.017398406
24	0x3a117c07	0.00055497925
25	0xbd07a257	-0.033113804
26	0x3ef4db70	0.47823668
27	0x3b327c8f	0.0027234887
28	0x3f314157	0.69240326
29	0x3e94f2df	0.29091546
30	0x3e6a9406	0.22908029
31	0x3d313241	0.043260816
32	0xbdb8a506	-0.09015851
33	0x3daad95d	0.0834224
34	0xbb0aab88	-0.002115937
35	0xbd7421ea	-0.059602655
36	0xbec3b83a	-0.3822649
37	0xbd217809	-0.039421115
38	0x3e283b64	0.16428906
39	0x3ecde2ce	0.402121
40	0x3e68023b	0.22657101
41	0x3e9be1b8	0.30445647
42	0x3c8792d4	0.016549505
43	0xbd2d275f	-0.042273875
44	0xbe62d952	-0.22153214
45	0x3ddf50b3	0.10904064
46	0xbcbe9d6b	-0.023268422
47	0x3eb3c192	0.3510862
48	0xbdac56ef	-0.08415019
49	0x3da113a0	0.07865071
50	0xbd6eca72	-0.058298536
51	0x3ed1c125	0.4096767
52	0xbd34a368	-0.04410115
53	0xbdb2ea94	-0.087361485
54	0xbb372a89	-0.0027948937
55	0xbcaa71cd	-0.020806218
56	0x3ed205f9	0.41020182
57	0xbca765ae	-0.020434227
58	0xbce0cbc8	-0.02744092
59	0xbd1d6a4a	-0.038431443
60	0x3e5dae7f	0.21648596
61	0xbc0229dc	-0.00794455
62	0xbcb7d6aa	-0.022441227
63	0x3ea8fabf	0.33003804
64	0xbe883cb9	-0.26608828
65	0x3ee49dc2	0.4465161
66	0x3c4b3333	0.012402344
67	0xbdbe9d15	-0.09307305
68	0xbd3849ef	-0.044992384
69	0xbe2e3f41	-0.17016317
70	0xbd84a7cc	-0.06477317
71	0xbe6e6a6c	-0.23282784
72	0x3e9adf35	0.30248418
73	0xbc70b62a	-0.014691869
74	0x3d99ab11	0.075033315
75	0xbcc6915e	-0.024239238
76	0xbdb524a5	-0.0884488
77	0xbd6bfe09	-0.057615314
78	0xbc8fd3c5	-0.017557034
79	0xbc5d1613	-0.013494032
80	0x3e721aef	0.23643087
81	0xbd397069	-0.04527322
82	0xbd8bdafc	-0.06828877
83	0xbc074b88	-0.008257754
84	0xbe32f0d1	-0.17474677
85	0x3d7121fc	0.0588703
86	0x3d6457ec	0.05574791
87	0x3ee57983	0.4481927
88	0x3d3ebb05	0.046565074
89	0x3d74aa96	0.059732996
90	0xbd6b622a	-0.057466663
91	0xbd809309	-0.06278045
92	0xbe5fe7d9	-0.21865787
93	0x3db6677f	0.08906459
94	0x3f1c074a	0.6094862
95	0x3cbd33bf	0.023095964
96	0x3f0f2edd	0.5593088
97	0x3e101b16	0.14072832
98	0xbdaf44fb	-0.08558079
99	0x3c293bc2	0.010329189
100	0xbd915f1a	-0.07098217
101	0x3e33cda5	0.17558916
102	0xbe9a72e5	-0.30165783
103	0x3e80e904	0.25177777
104	0xbe777044	-0.2416392
105	0xbd1eaa0a	-0.03873638
106	0xbec79ded	-0.38987675
107	0x3e9dce92	0.30821663
108	0xbd8d3e63	-0.06896665
109	0x3eba597b	0.36396393
110	0x3ecc83c6	0.39944285
111	0x3f11a333	0.5688965
112	0x3e2e2fd1	0.17010428
113	0x3ef9ff83	0.48827752
114	0xbcb4c0c2	-0.02206457
115	0x3e570d1a	0.21001092
116	0xbea9d5d4	-0.3317095
117	0x3d03b741	0.032157186
118	0xbd85b2d6	-0.06528251
119	0xbd32043d	-0.043461073
120	0x3e59aa17	0.2125629
121	0x3e5cea86	0.21573839
122	0xbd898431	-0.06714667
123	0x3e8ee6a5	0.27910343
124	0x3deee5bc	0.11664912
125	0xbe84d848	-0.2594626
126	0xbcaf62eb	-0.021409472
127	0x3db51679	0.08842177
128	0xbc2c5af4	-0.010519732
129	0x3cb0302a	0.021507341
130	0xbe6c81f4	-0.23096448
131	0x3f04313b	0.5163762
132	0x3e5f44a6	0.21803531
133	0xbd16aa18	-0.036783308
134	0xbd59a95d	-0.053140033
135	0x3ca27504	0.019831188
136	0x39484d29	0.0001910223
137	0xbda91c8d	-0.08257399
138	0xbcdbc355	-0.02682654
139	0x3eae48f5	0.34040037
140	0xbe6e8284	-0.23291975
141	0xbe0bb617	-0.1364368
142	0x3e816c00	0.2527771
143	0x3eaddaaa	0.3395589
144	0xbdcf6272	-0.10126199
145	0xbcc7260f	-0.02431014
146	0xbd72b2c1	-0.059252504
147	0x3e3d4c9a	0.18486252
148	0x3e27d673	0.163904
149	0x3e27dbb1	0.163924
150	0xbd8b366d	-0.0679749
151	0x3e0e70d5	0.1391023
152	0xbce7d55a	-0.028299976
153	0x3dffe12c	0.1249412
154	0xbeb2d210	-0.3492589
155	0x3eb39cb5	0.35080495
156	0x3ed9d7aa	0.4254735
157	0xbe26b1d2	-0.1627877
158	0xbd4dd5b5	-0.050252635
159	0x3de2d7b0	0.110762954
160	0xbe4095b8	-0.18807113
161	0x3f382641	0.7193337
162	0xbd112ebf	-0.03544497
163	0xbd51877e	-0.051154606
164	0xbce5a754	-0.02803389
165	0x3e3e0fec	0.18560761
166	0x3b831170	0.0039998814
167	0xbd05af2e	-0.032637767
168	0x3ee4ca67	0.4468567
169	0x3ba6223d	0.0050699995
170	0x3e4fb50b	0.20283906
171	0xbd2628f2	-0.040566392
172	0x3c9968ab	0.018726667
173	0x3e751de0	0.23937178
174	0x3ee36937	0.4441621
175	0xbd931d21	-0.0718329
176	0xbe73f009	-0.23822035
177	0x3ec0a05f	0.37622353
178	0xbae00a62	-0.0017092938
179	0xbd289631	-0.04115886
180	0x3f325fd8	0.69677496
181	0xbd9c18cd	-0.07621918
182	0x3e9111b8	0.2833383
183	0xbd8accb2	-0.06777324
184	0xbd41ca05	-0.0473118
185	0xbc7c280f	-0.01539041
186	0x3ed88d69	0.42295387
187	0x3ea72aae	0.3264975
188	0x3d5210ff	0.05128574
189	0x3aeff29e	0.0018306558
190	0x3dc402a3	0.095708154
191	0xbdcda1c8	-0.10040623
192	0xbda9efca	-0.08297689
193	0xbd5b7692	-0.053579874
194	0x3d0e51b4	0.034745887
195	0x3e6e84ea	0.2329289
196	0x3e5bbe56	0.21459326
197	0x3e3c25af	0.1837375
198	0x3eb2d3a3	0.3492709
199	0xbd2da7e6	-0.04239645
200	0xbd254bec	-0.040355608
201	0x3ea95d6e	0.33079094
202	0x3d4c568a	0.049887218
203	0xbcdb0a14	-0.026738204
204	0xbdfd3911	-0.123644
205	0xbc6651fe	-0.014057634
206	0x3e824684	0.25444424
207	0x3ee0b6d0	0.43889475
208	0xbd38143d	-0.044941176
209	0xbd7ba1a2	-0.061433442
210	0xbd995241	-0.07486392
211	0x3bc3c379	0.00597423
212	0xbd63732a	-0.05552975
213	0x3cfbaba8	0.0307215
214	0x3f00246d	0.5005558
215	0x3dc61e5a	0.09673758
216	0xbce197b6	-0.027538162
217	0x3ebf08a8	0.37311292
218	0xbcfbb256	-0.030724686
219	0xbd8a1a08	-0.06743246
220	0x3e3628eb	0.17789046
221	0x3e4e835f	0.20167302
222	0x3efdeccf	0.49594733
223	0xbd32a089	-0.04361013
224	0x3ebe07d0	0.37115335
225	0x3f2baf00	0.67063904
226	0xbc5288a7	-0.012849963
227	0x3c2b1f93	0.01044454
228	0xbd192ffb	-0.037399273
229	0x3dbfa81e	0.09358238
230	0xbcc76c7d	-0.024343723
231	0x3e944b21	0.2896357
232	0xbd86996a	-0.0657223
233	0xbd6f4bf9	-0.058422063
234	0x3f0a8852	0.5411426
235	0xbd360e3c	-0.04444717
236	0xbd698598	-0.05701217
237	0x3f201729	0.6253534
238	0xbdfadc3d	-0.12249038
239	0xbdd37720	-0.10325456
240	0x3e51b740	0.2048006
241	0x3e42e20e	0.19031546
242	0x3d902fff	0.070404045
243	0x3ea30f5d	0.3184766
244	0xbd5e6ea2	-0.054304726
245	0x3dfb0411	0.12256635
246	0xbd746b9a	-0.05967293
247	0xbe74ffbe	-0.23925683
248	0x3dd9bfd6	0.10632293
249	0x3e7bac24	0.24577385
250	0x3ef222f9	0.47292307
251	0xbe9e8b97	-0.30965874
252	0x3c1e6288	0.009667046
253	0xbca66f9b	-0.02031689
254	0x3e57e03a	0.2108163
255	0xbcbd3c93	-0.023100173

fc2.weight f4 [10, 256]
0	0x3de129cd	0.10994301
1	0xbe7fa1a5	-0.24964006
2	0xbd75cbbb	-0.060008746
3	0xbe6c41b3	-0.23071937
4	0xbbec0393	-0.0072025745
5	0x3d542ec4	0.05180241
6	0x3c9423b4	0.01808343
7	0x3d8db24b	0.06918772
8	0x3d602bb1	0.054729167
9	0x3cf3bf3f	0.02975428
10	0xbde2cd43	-0.11074307
11	0xbcc051f8	-0.023476586
12	0xbe49715c	-0.1967215
13	0x3db7fcba	0.08983751
14	0x3d31b056	0.043381058
15	0x3ce0f60c	0.027461074
16	0xbe3a6762	-0.182035
17	0x3d374484	0.044743076
18	0xbdf28515	-0.1184179
19	0x3e15cda5	0.14629228
20	0xbe0aa301	-0.13538744
21	0x3cf13440	0.02944386
22	0xbdefb4e3	-0.11704423
23	0xbd0ed6e5	-0.03487291
24	0xbb770889	-0.0037694296
25	0x3b4e6efe	0.0031499262
26	0xbecb4a17	-0.39704964
27	0xbe1c05f6	-0.15236649
28	0xbe64aec6	-0.22332296
29	0xbcec8a07	-0.02887441
30	0xbe132d46	-0.14372739
31	0xbdb29089	-0.08718974
32	0xbcd52c95	-0.026022235
33	0x3decaaf4	0.11556044
34	0x3c82f7fc	0.015987389
35	0xbd76a06f	-0.060211595
36	0x3de084ee	0.10962854
37	0xbd9e7520	-0.077371836
38	0xbd5c958e	-0.053853564
39	0xbd8930e6	-0.0669878
40	0xbe3b9742	-0.18319419
41	0x3d66083f	0.056160208
42	0x3c76556e	0.015035016
43	0x3c7d3085	0.0154534625
44	0x3d4e11ae	0.05030983
45	0x3d756d32	0.05991859
46	0xbdd27320	-0.102758646
47	0xbe1167dd	-0.14199777
48	0xbe406e7f	-0.18792151
49	0x3d9ea54f	0.07746374
50	0xbb7c2df4	-0.0038479539
51	0x3c750410	0.014954582
52	0xbc8cf60e	-0.017207172
53	0x3d85db09	0.06535918
54	0x3d0e4e73	0.034742784
55	0xbdc0cdce	-0.09414254
56	0xbe16d17b	-0.14728348
57	0x3bbb6b35	0.005719567
58	0xbbfbdaad	-0.0076859803
59	0x3be5f47a	0.0070176693
60	0x3d21c35a	0.039492942
61	0xbc22fb79	-0.009947651
62	0xbc6c2d6f	-0.014415129
63	0xbeba9284	-0.36439908
64	0x3d9cbd3f	0.07653283
65	0x3e7792f8	0.24177158
66	0xbc9ae5ab	-0.018908342
67	0x3c928798	0.017886922
68	0x3cf50c85	0.029913196
69	0x3e111336	0.14167485
70	0x3c781b28	0.015143193
71	0x3dd84277	0.10559552
72	0x3e1ad58a	0.15120521
73	0xbd2112f0	-0.0393247
74	0x3dfaa195	0.122378506
75	0x3c69b95b	0.014265384
76	0xbcdc8655	-0.026919523
77	0xbcebd04b	-0.028785845
78	0x3d047b98	0.03234443
79	0x3daf837b	0.0857
80	0x3e2d044f	0.16896175
81	0x3d60713a	0.05479548
82	0xbbf5b1ad	-0.0074979872
83	0xbda7aeb3	-0.08187618
84	0x3dd06715	0.10175911
85	0x3da8efa0	0.0824883
86	0x3c87be92	0.016570363
87	0xbe1cb92e	-0.15305015
88	0xbd6f3249	-0.058397565
89	0xbb3d1ca8	-0.0028856192
90	0x3c92e516	0.017931502
91	0x3c95d3d1	0.018289478
92	0x3e0441eb	0.1291577
93	0xbb568ee9	-0.003273899
94	0xbe80ccb3	-0.25156173
95	0xbbecf6aa	-0.007231553
96	0x3dc3d9f9	0.09563059
97	0xbd7483b0	-0.0596959
98	0xbc540ce9	-0.012942531
99	0x3c93f71e	0.01806217
100	0xbca501e2	-0.0201425
101	0xbe45aac2	-0.1930342
102	0x3e1c7134	0.15277559
103	0x3c866f29	0.016410427
104	0x3d4ad2c7	0.04951742
105	0xbcf4b4a4	-0.029871292
106	0x3dd54141	0.10412837
107	0x3c3aa8a3	0.011392745
108	0x3ce97bee	0.028501477
109	0x3c9dba03	0.019253736
110	0xbe0305d0	-0.12795186
111	0xbe4f276a	-0.20229879
112	0x3e5ce86a	0.21573034
113	0xbd55b4bb	-0.05217431
114	0xbd616467	-0.05502739
115	0x3d5246d4	0.05133708
116	0x3dfadb14	0.12248817
117	0x3d3e5b5e	0.046473853
118	0xbdf6ee91	-0.12057222
119	0x3d067fb9	0.03283665
120	0x3dd3d5d9	0.103435226
121	0x3ddff1b3	0.10934772
122	0xbd0abb85	-0.03387024
123	0xbdb6e9d2	-0.089313164
124	0xbddc112d	-0.107454635
125	0x3d8a4141	0.067507274
126	0xbc66d7bb	-0.01408952
127	0x3d55777c	0.052115902
128	0xbd824fe4	-0.06362894
129	0x3d9da300	0.076971054
130	0x3c95e3c6	0.018297087
131	0xbea72a1c	-0.32649314
132	0xbd142232	-0.036165424
133	0xbaa63cc0	-0.00126829
134	0xbaf2fcce	-0.0018538476
135	0x3cc7eead	0.024405802
136	0x3b0cb641	0.0021470936
137	0xbde27539	-0.11057515
138	0xbda9d589	-0.08292682
139	0x3de36941	0.1110406
140	0x3df0ea34	0.11763421
141	0x3e4b905f	0.19879292
142	0xbe345dd9	-0.17613925
143	0xbe60f076	-0.21966729
144	0xbabe8eb6	-0.0014538381
145	0x3cb51bec	0.02210804
146	0xbc76cf2e	-0.015064044
147	0xbe18dfe6	-0.1492916
148	0x3e0597c7	0.1304618
149	0xbd0935ca	-0.033498563
150	0xbc89a25e	-0.016801056
151	0xbd9a8bde	-0.07546209
152	0xbd29efb9	-0.041488383
153	0x3d6dc4fe	0.058049195
154	0x3da016d3	0.078168534
155	0xbe8dfdf6	-0.2773282
156	0xbe04c184	-0.12964445
157	0x3df4e538	0.119577825
158	0xbd6fc967	-0.05854168
159	0x3d810e94	0.06301609
160	0x3e1ec1af	0.15503572
161	0xbe9a2cda	-0.30112344
162	0x3c59f697	0.0133034205
163	0x3c1c70c6	0.009548372
164	0xbc15708c	-0.009121072
165	0x3e21ea27	0.15811978
166	0xbc5042e0	-0.012711257
167	0xbddb570f	-0.107099645
168	0xbe7b2fd9	-0.24529971
169	0xbd3910a0	-0.04518187
170	0x3db32367	0.08746987
171	0x3b80e505	0.0039335513
172	0x3cde913d	0.027168864
173	0x3df0f8e3	0.117662214
174	0x3da24f07	0.079252295
175	0xbb6ae375	-0.0035841141
176	0x3dfa2b21	0.122152574
177	0xbd9085b9	-0.070567556
178	0x3e29fbf4	0.16600019
179	0x3b95de4c	0.004573619
180	0xbe931695	-0.28728166
181	0x3d4a1f94	0.04934652
182	0x3da759e8	0.08171445
183	0xbd3286db	-0.04358564
184	0xbd6c5790	-0.057700694
185	0xbb3db8e8	-0.0028949324
186	0x3dbc01cf	0.091800325
187	0xbe4a158c	-0.19734782
188	0x3d89d284	0.06729606
189	0x3d4fe457	0.05075487
190	0x396499d6	0.00021801083
191	0xbd0e150b	-0.034688037
192	0x3d9428d4	0.0723435
193	0x3ce1fc9c	0.027586274
194	0x3cb066b3	0.021533346
195	0x3e0c9df3	0.13732128
196	0xbdcc49eb	-0.09975036
197	0x3df5ef66	0.12008552
198	0x3e3491cd	0.17633744
199	0xbd1f573f	-0.038901564
200	0xbd33aa69	-0.043863688
201	0xbe4ecb4b	-0.20194738
202	0x3ded537d	0.1158819
203	0xb99564ec	-0.00028494687
204	0x3d1503e2	0.036380656
205	0xbd6ebc75	-0.058285195
206	0xbde498ac	-0.11161932
207	0xbcc3fd92	-0.023924623
208	0xbd821c01	-0.063529976
209	0xbda6e540	-0.08149195
210	0xbc957924	-0.01824624
211	0xbc94e062	-0.0181734
212	0xbcdafdc7	-0.026732339
213	0x3cf3d3e0	0.029764116
214	0xbe9e0c10	-0.30868578
215	0x3c5bea56	0.013422569
216	0xbd27e861	-0.0409931
217	0xbe492d6e	-0.19646236
218	0xbd06cfde	-0.03291308
219	0x3df1bc60	0.11803508
220	0x3df74962	0.120745435
221	0xbe23594e	-0.15952036
222	0xbe896286	-0.2683298
223	0xbc027131	-0.007961557
224	0x3c2049f6	0.009783259
225	0xbebc3f5e	-0.36767095
226	0x3ce04d6a	0.027380664
227	0x3da5d2cd	0.08096848
228	0xbdfd4879	-0.12367339
229	0xbd7611ff	-0.060075756
230	0x3e524d3c	0.20537275
231	0xbd97c68a	-0.07410915
232	0xbc257715	-0.010099192
233	0x3c03d7fc	0.0080471
234	0xbe4eb908	-0.20187771
235	0xbcfb8f83	-0.03070808
236	0xbdf27bfd	-0.11840055
237	0xbe98a51c	-0.29813468
238	0x3e174b26	0.1477476
239	0x3d76532c	0.060137913
240	0x3dfd12cc	0.12357101
241	0x3da6ba91	0.081410535
242	0x3d97c4ab	0.07410558
243	0xbe3d7f6b	-0.18505637
244	0x39e7f11b	0.0004423939
245	0xbd832cd7	-0.06405037
246	0xbc946500	-0.018114567
247	0x3e33c5f4	0.17555982
248	0x3dd42970	0.10359466
249	0x3d8c8da7	0.068629555
250	0x3e3d0b9a	0.18461457
251	0x3df42864	0.119217664
252	0x3ce20608	0.027590767
253	0x391cd89d	0.00014958014
254	0x3a110104	0.00055314624
255	0xba869f2c	-0.0010270826

fc2.bias f4 [10]
0	0xbf1988fc	-0.59974647
1	0xbec077e8	-0.3759148
2	0xbe3e780b	-0.1860048
3	0x3ea2ad75	0.31772962
4	0x3ea2a219	0.31764296
5	0xbd38f7bf	-0.045158144
6	0x3ba386f7	0.0049904543
7	0x3ce12fdd	0.027488643
8	0x3ddc5d65	0.10760001
9	0x3e88debf	0.26732442
